model/model.pth (torch, 17216 bytes, 4 tensors)

linear1.weight f4 [256, 11]
0	0xbef547ba	-0.47906286
1	0xbddda28d	-0.1082202
2	0x3da20b67	0.07912331
3	0x3ec7409f	0.3891649
4	0x3ee669e5	0.45002666
5	0xbf29b0b5	-0.6628526
6	0xbf2435b7	-0.6414446
7	0x3ed2b87b	0.41156372
8	0x3eeada72	0.45869786
9	0xbf1b3e54	-0.6064198
10	0xbf04d7f4	-0.5189202
11	0xbe1148bf	-0.14187907
12	0x3e76c421	0.24098255
13	0x3e3ea96b	0.18619315
14	0x3e25082b	0.16116397
15	0xbeca1540	-0.39469337
16	0x3e57a6fd	0.21059795
17	0x3e8bb773	0.27288398
18	0x3e0b5aa1	0.13608791
19	0xbe747ac0	-0.2387495
20	0x3ebe09cd	0.37116852
21	0x3f13b9d3	0.5770542
22	0x3d2e5a8e	0.04256683
23	0x3f49f547	0.7888989
24	0xbe8c4cae	-0.27402252
25	0xbdf74225	-0.12073163
26	0x3e9c4c5d	0.3052701
27	0xbf11c144	-0.56935525
28	0x3ee9529e	0.45570844
29	0xbf01a84d	-0.5064743
30	0x3e7a402b	0.2443854
31	0x3e1e4788	0.15456975
32	0xbe0f7e08	-0.14012921
33	0xbd68534a	-0.056720056
34	0xbc7ec0a1	-0.015548856
35	0x3e6ef85e	0.23336932
36	0x3e0b849b	0.13624804
37	0xbe9e723b	-0.30946526
38	0xbdc9e372	-0.09857835
39	0xbea7ccd5	-0.32773462
40	0x3ec6f9a3	0.38862333
41	0x3f0e3531	0.55549914
42	0x3ed93fa0	0.42431355
43	0x3f2c5519	0.6731735
44	0x3d497dea	0.049192347
45	0x3ecc3ac3	0.39888582
46	0x3d9b5693	0.07584872
47	0x3ca48e78	0.020087466
48	0xbe12aeb0	-0.1432445
49	0xbdc2534b	-0.09488543
50	0xbdfbfcf0	-0.123041034
51	0x3e703974	0.23459417
52	0x3ec2a02a	0.3801282
53	0x3ec8a1a6	0.39185828
54	0x3edb7116	0.42859715
55	0x3f0dce98	0.5539336
56	0xbbe5b365	-0.007009911
57	0xbea5ca3a	-0.3238085
58	0x3dfdb3bf	0.123877995
59	0xbebe7706	-0.37200183
60	0xbd7d68bb	-0.061867457
61	0x3e91552e	0.283853
62	0xbe46fa73	-0.19431476
63	0x3ee56be0	0.44808865
64	0x3e1f9ac7	0.15586387
65	0xbe1f9028	-0.15582335
66	0x3dc4a997	0.09602659
67	0x3e1ee02a	0.155152
68	0x3de541ce	0.11194192
69	0x3e8d4ff5	0.27600065
70	0xbdf68c50	-0.12038481
71	0x3e68b8c9	0.2272674
72	0xbef03b0f	-0.46920058
73	0xbd6e5556	-0.05818685
74	0x3eee29a8	0.46516156
75	0xbe0a0524	-0.13478523
76	0x3f169e16	0.5883497
77	0xbeaaac72	-0.3333469
78	0xbe1a667d	-0.15078159
79	0x3e56d87c	0.2098102
80	0xbed8bf55	-0.42333475
81	0x3eaa93f6	0.3331601
82	0xbe1bd0ee	-0.15216419
83	0x3e9d875d	0.30767336
84	0xbea5d05b	-0.32385525
85	0x3d671aeb	0.056422155
86	0xbee1a37b	-0.44070038
87	0x3f00011b	0.50001687
88	0x3bf6fa0b	0.0075371317
89	0xbe386219	-0.18006171
90	0x3f2d4e0a	0.67697203
91	0xbd1aa90f	-0.037758883
92	0xbd25ea8a	-0.040506877
93	0xbcef49fd	-0.029210085
94	0xbee1b90b	-0.4408649
95	0x3b03ec0a	0.0020129704
96	0x3e83e7b1	0.25762704
97	0xbd3a436f	-0.045474466
98	0x3eba4ab8	0.3638513
99	0x3e3b63e9	0.18299831
100	0x3eeb5981	0.45966724
101	0xbd815188	-0.06314379
102	0xbb2fddee	-0.0026835161
103	0xbe679e06	-0.22618875
104	0xbd9a7776	-0.075423166
105	0xbe7d9f4d	-0.247678
106	0x3ec208a3	0.37897214
107	0x3f2181c1	0.63088614
108	0x3f0024c5	0.50056106
109	0x3f2a7042	0.6657754
110	0xbee63ffd	-0.44970694
111	0xbe7f744c	-0.24946707
112	0x3eac811c	0.33692253
113	0x3eddc4c6	0.4331419
114	0xbe193b3e	-0.14964005
115	0x3ed29acd	0.4113373
116	0xbe822e25	-0.2542583
117	0xbebabc93	-0.36471996
118	0x3e81a13b	0.25318322
119	0xbe972f7a	-0.2952841
120	0x3e9fd5a8	0.31217694
121	0x3eb1fbfd	0.34762564
122	0xbdd9f406	-0.10642247
123	0x3ce56214	0.028000869
124	0x3e51b0d9	0.20477618
125	0xbe66be72	-0.22533587
126	0xbed8b294	-0.42323744
127	0x3ee5d790	0.44891024
128	0xbda13b9c	-0.07872698
129	0x3ed269e2	0.41096407
130	0x3f097e85	0.5370868
131	0xbeb33c5f	-0.35006997
132	0x3e5ba03a	0.2144784
133	0x3ed062ae	0.40700287
134	0x3e94e12e	0.29078048
135	0x3d55e6fc	0.052222237
136	0xbddbbec0	-0.10729742
137	0xbd40d861	-0.047081355
138	0xbe022c65	-0.12712248
139	0x3eb49a3e	0.35273927
140	0x3ec27735	0.37981573
141	0x3ee3592b	0.44403967
142	0x3ef62ce1	0.48081115
143	0xbec2ec46	-0.38070887
144	0x3e1533ad	0.14570494
145	0x3e582570	0.21108031
146	0x3db95e69	0.090512104
147	0xbe123053	-0.14276247
148	0x3d1bb09c	0.038010225
149	0xbefa9bce	-0.48946995
150	0x3e055fd3	0.13024835
151	0x3efc5d2f	0.49289843
152	0x3db99710	0.09062016
153	0x3f2bdaa2	0.6713048
154	0xbeef8853	-0.46783695
155	0x3c7bb5d4	0.015363175
156	0xbe0a34db	-0.13496725
157	0xbf2ed794	-0.68297696
158	0x3e79af49	0.24383272
159	0x3e8501cd	0.25977936
160	0x3eee411e	0.46534055
161	0xbf14f074	-0.581794
162	0x3e7a289d	0.24429555
163	0x3d631309	0.055438075
164	0x3d72d8ad	0.05928867
165	0x3eb30d0a	0.34970886
166	0xbe882eb9	-0.26598147
167	0x3dde30b1	0.10849131
168	0xbc4fb20a	-0.012676725
169	0xbebf4e1a	-0.37364274
170	0xbe770626	-0.24123439
171	0x3ef86eb9	0.48521975
172	0x3e072228	0.13196623
173	0x3f09fc9a	0.53901064
174	0x3ec1748a	0.37784225
175	0xbed7febc	-0.42186534
176	0x3e94a11e	0.29029173
177	0x3d91be06	0.07116322
178	0x3efa6946	0.48908442
179	0x3e84273c	0.25811183
180	0xbe326fba	-0.17425433
181	0x3c98361e	0.018580493
182	0xbe01043d	-0.12599273
183	0xbe954bda	-0.29159433
184	0x3eb30e88	0.34972024
185	0xbcf2bd9a	-0.029631425
186	0x3e329d48	0.1744281
187	0x3e455521	0.19270755
188	0x3cbd499c	0.023106389
189	0xbde11ecb	-0.109922014
190	0xbdc0c43d	-0.094124295
191	0xbe9f56e7	-0.3112099
192	0x3f01f22d	0.50760156
193	0x3e9d11de	0.30677694
194	0x3e7f7b9c	0.24949497
195	0x3ef89d33	0.48557433
196	0xbee04074	-0.43799174
197	0xbe7063bb	-0.23475544
198	0xbd020025	-0.03173842
199	0xbcd38a14	-0.025822677
200	0xbe976d21	-0.29575446
201	0xbbd2e1e9	-0.006435622
202	0xbe28ff26	-0.16503581
203	0x3c22fbe5	0.009947752
204	0xbe7859bf	-0.24252985
205	0xbe023434	-0.12715226
206	0x3e052709	0.13003172
207	0x3ca3142a	0.019907076
208	0x3d661de4	0.05618085
209	0x3ef6a4fe	0.48172754
210	0xbd6dca4b	-0.05805425
211	0x3f18660a	0.595307
212	0x3e16753a	0.14693156
213	0xbe16046e	-0.14650127
214	0xbd7652d8	-0.0601376
215	0xbe47fd6b	-0.19530265
216	0x3ebadbc5	0.36495796
217	0x3f048970	0.51772213
218	0x3f122d19	0.57100064
219	0x3f1ea6d7	0.6197333
220	0xbecd2036	-0.40063637
221	0xbe8c0869	-0.27350166
222	0x3d92ff92	0.071776524
223	0x3eb18869	0.34674385
224	0x3e92c552	0.28666168
225	0x3eae0f9c	0.33996284
226	0x3e9ddb5f	0.3083143
227	0xbd593e1f	-0.05303776
228	0x3dfa29c9	0.12215001
229	0xbea5aa0a	-0.32356292
230	0xbbc2f006	-0.005949023
231	0xbe6d62d4	-0.23182231
232	0xbee405a0	-0.44535542
233	0x3eba20d4	0.3635317
234	0x3eb78537	0.35843822
235	0xbeccd112	-0.40003258
236	0xbd1b4b05	-0.03791334
237	0x3e984c84	0.29745877
238	0x3d0ed747	0.034873273
239	0xbeb5ebb4	-0.3553139
240	0x3ec1e008	0.37866235
241	0xbdbaa33a	-0.09113164
242	0x3d9d1f34	0.07671967
243	0xbd8bf16b	-0.06833156
244	0x3f4389d7	0.763822
245	0xbdee57c8	-0.11637837
246	0x3cb82054	0.022476353
247	0xbdc8e55d	-0.098093726
248	0x3d89d01c	0.06729147
249	0x3efdd981	0.49580005
250	0x3e842a1e	0.25813383
251	0x3ef52a3a	0.4788378
252	0x3ecf618a	0.40504104
253	0x3e55a7e1	0.20864822
254	0x3dbc79d5	0.09202925
255	0xbda83514	-0.08213249

linear1.bias f4 [256]
0	0x3e12d25b	0.14338057
1	0xbb2e6551	-0.0026610682
2	0x3c9d1c0f	0.019178418
3	0xbeaa6feb	-0.33288512
4	0xbea38956	-0.31940717
5	0xbdc5f0c0	-0.0966506
6	0xbe3632d5	-0.17792828
7	0x3dbb1cb8	0.09136337
8	0x3db3b38e	0.08774482
9	0xbeeb53be	-0.45962328
10	0xbdb08a0d	-0.08620081
11	0xbe269d75	-0.16271003
12	0xbebf6bce	-0.37386936
13	0xbe3c8b24	-0.18412453
14	0x3edd2f9d	0.4320039
15	0xbe0be0db	-0.13659994
16	0xbe14255a	-0.14467373
17	0xbd543bc0	-0.051814795
18	0xbe48e0a3	-0.19616942
19	0xbeea7cc6	-0.4579832
20	0x3f2de686	0.67929876
21	0x3da912c4	0.082555324
22	0xbeae6e9a	-0.34068757
23	0xbe370b78	-0.17875469
24	0xbba3ce74	-0.0049989764
25	0xbee15455	-0.44009653
26	0xbeb1a83e	-0.3469867
27	0x3f3dc0c4	0.7412226
28	0xbe234baf	-0.1594684
29	0x3d85b182	0.065279976
30	0xbce32108	-0.027725711
31	0x3ea7e1ad	0.32789364
32	0xbeaf29d9	-0.34211615
33	0x3f30d328	0.690722
34	0xbdfad5d1	-0.122478135
35	0xbd93a9ce	-0.07210122
36	0x3dcc1639	0.09965176
37	0xbcf44fdb	-0.029823234
38	0x3dfd3f6c	0.123656124
39	0x3e11e970	0.14249206
40	0xbda8d7da	-0.082442954
41	0x3e700f1f	0.23443268
42	0xbec43729	-0.38323334
43	0xb9a327ee	-0.00031119533
44	0xbe5ff168	-0.21869433
45	0xbe63fdb5	-0.2226475
46	0xbb85be6a	-0.004081537
47	0xbc19cd8e	-0.009387387
48	0x3e5d5632	0.21614912
49	0x3eaaf487	0.33389685
50	0x3d54b6c7	0.051932123
51	0xbe4651aa	-0.1936709
52	0xbe5db812	-0.21652249
53	0xbda8dcc3	-0.08245232
54	0x3e841b0e	0.2580189
55	0xbe159fc9	-0.14611734
56	0xbf0b712a	-0.5446955
57	0x3dd42293	0.10358157
58	0xbe945aff	-0.28975675
59	0xbe15c368	-0.14625323
60	0xbe57c94b	-0.21072881
61	0x3f3f68f7	0.7476954
62	0x3d54d797	0.051963415
63	0xbc339a4d	-0.010962081
64	0x3e8c2a4b	0.27376017
65	0xbb608825	-0.0034260836
66	0x3cad9ea9	0.02119382
67	0xbe5668d2	-0.20938423
68	0xbe37a476	-0.1793383
69	0x3cf01aff	0.029309748
70	0x3e0f32ca	0.13984218
71	0xbd284bb1	-0.04108781
72	0xbd12a449	-0.035801206
73	0xbf1031d8	-0.56326056
74	0x3e25acd3	0.16179208
75	0xbd85abdd	-0.06526921
76	0x3e738b84	0.2378369
77	0xbeb7d58b	-0.35905108
78	0xbd58cc94	-0.052929476
79	0xbe23fc6a	-0.16014257
80	0x3ef0e869	0.47052315
81	0xbe933570	-0.28751707
82	0xbd7f7a18	-0.062372297
83	0xbe814575	-0.25248304
84	0xbe0c1dff	-0.13683318
85	0x3f357339	0.7087894
86	0x3b203696	0.0024446598
87	0xbe0bd92f	-0.13657068
88	0x3e1f88d8	0.15579545
89	0xbe8adef8	-0.27123237
90	0xbe1f58e6	-0.15561256
91	0xbe93fcc3	-0.2890378
92	0x3ce7cf91	0.028297218
93	0xbe9fee12	-0.3123632
94	0x3dec48dc	0.11537334
95	0xbea7b329	-0.32753876
96	0xbe7738e9	-0.24142803
97	0x3e05d233	0.13068466
98	0xbe0e876c	-0.13918847
99	0x3f1d39fc	0.614166
100	0x3e01eadd	0.1268725
101	0x3ed74bf6	0.4205014
102	0xbe7e99e1	-0.24863388
103	0x3e20d088	0.15704548
104	0x3e977b87	0.2958643
105	0xbdb1d6f8	-0.0868358
106	0xbd94281e	-0.07234214
107	0x3e950355	0.29104105
108	0xbe44d310	-0.19221139
109	0x3e524088	0.20532429
110	0x3e228ac1	0.15873243
111	0xbe825121	-0.2545252
112	0x3f134e33	0.575412
113	0x3e6d8f44	0.23199183
114	0xbe1aac37	-0.15104757
115	0x3efd7734	0.49505007
116	0x3edfea38	0.43733382
117	0xbe8d2826	-0.27569693
118	0x3ed8dae7	0.4235451
119	0xbd26e47c	-0.040745243
120	0xbe88bf16	-0.26708287
121	0x3d47f504	0.04881765
122	0xbe932a63	-0.28743276
123	0x3eaf0adf	0.3418798
124	0xbe0831dd	-0.13300271
125	0x3d6768c3	0.056496393
126	0xbe13ee15	-0.1444629
127	0xbdceb396	-0.10092847
128	0xbe9d6045	-0.3073751
129	0xbdc26626	-0.094921395
130	0xbd072bb8	-0.033000678
131	0x3d9414cc	0.07230529
132	0xbe51fdd1	-0.2050698
133	0xbd2dba5c	-0.042414054
134	0xbe1e53d0	-0.1546166
135	0xbe0dfa20	-0.13864946
136	0xbe977c93	-0.2958723
137	0xbd05a8b8	-0.032631606
138	0xbe4ed414	-0.20198089
139	0x3e458d39	0.19292153
140	0xbe9f8070	-0.31152678
141	0xbc8d01d3	-0.017212784
142	0x3f270561	0.6524258
143	0xbbb012d9	-0.0053733406
144	0xbd105f33	-0.03524704
145	0x3cbf39dc	0.02334302
146	0xbddcbf05	-0.107786216
147	0xbe5ac6aa	-0.21364847
148	0x3ea316f4	0.3185345
149	0x3f1bd68c	0.6087425
150	0x3e7221e8	0.23645747
151	0xbdbf3612	-0.09336485
152	0xbe092823	-0.13394217
153	0x3ec20a2f	0.37898394
154	0x3dc5fe58	0.09667653
155	0xbd83d67c	-0.06437394
156	0xbe383ace	-0.17991182
157	0xbe9d8234	-0.307634
158	0x3c3aa1bf	0.011391102
159	0xbe65afb6	-0.2243031
160	0xbea62e82	-0.32457358
161	0xbdc778c8	-0.09739834
162	0xbe75c224	-0.2399984
163	0x3ed298a5	0.41132084
164	0xbe8b5980	-0.2721672
165	0xbe563fc2	-0.20922759
166	0xbe1e0213	-0.15430479
167	0x3d595941	0.053063635
168	0x3e87e910	0.26545
169	0x3edecd7a	0.4351614
170	0xbd6482d2	-0.055788822
171	0xbe1f1ae9	-0.15537609
172	0x3e123b19	0.14280356
173	0xbe77b62b	-0.24190585
174	0xbe2f9984	-0.17148405
175	0xbd2fed55	-0.042950947
176	0x3ef56606	0.479294
177	0xbe3d4cb1	-0.18486287
178	0x3e1d1a17	0.15341984
179	0x3da8fa66	0.08250885
180	0x3f30e0cd	0.6909302
181	0xbe5cd731	-0.21566464
182	0xbe221929	-0.1582991
183	0xbe29cd82	-0.16582301
184	0x3eb28275	0.34865156
185	0xbe6a4915	-0.22879441
186	0xbf1089cf	-0.5646028
187	0xbe7edc76	-0.24888787
188	0xbe211d5c	-0.15733856
189	0x3ef49bcf	0.47775123
190	0xbe90fa31	-0.2831588
191	0xbeb67c8e	-0.35641903
192	0x3ea2dedb	0.3181065
193	0x3e0abb2a	0.1354796
194	0xbe598db8	-0.21245468
195	0x3dce515e	0.10074113
196	0xbef17c27	-0.47165033
197	0xbe8ee85b	-0.27911648
198	0xbe0b6950	-0.13614392
199	0xbd2036ff	-0.03911495
200	0xbe00ac77	-0.1256579
201	0x3c6c6b13	0.014429825
202	0xbe2e00c4	-0.1699248
203	0xbd2dae25	-0.042402405
204	0x3e6517fa	0.22372428
205	0x3db511c8	0.08841282
206	0xbe81e7e4	-0.2537223
207	0x3dd75a7f	0.10515308
208	0xbe2e7f07	-0.17040645
209	0xbd67fe66	-0.056639098
210	0xbea83a40	-0.3285694
211	0xbd82e65a	-0.06391592
212	0xbec8ccbe	-0.39218706
213	0xbe0c67ba	-0.13711444
214	0xbe487e41	-0.19579412
215	0xbd55f91b	-0.05223952
216	0x3f0dc23c	0.55374503
217	0xbdb01ab5	-0.08598844
218	0x3d61d8c4	0.055138364
219	0xbe5e4fe9	-0.21710171
220	0xbdfb8137	-0.12280505
221	0x3ee4dc10	0.44699144
222	0x3e112854	0.1417554
223	0xbc7b9ba8	-0.015356936
224	0xbe8460da	-0.25855142
225	0xbd84464d	-0.06458721
226	0x3e56aeab	0.20965068
227	0xbe4cc127	-0.19995557
228	0xbe5d5f09	-0.21618284
229	0xbe2b28a6	-0.16714725
230	0xbe0b11f0	-0.13581061
231	0xbe406cc4	-0.18791491
232	0x3f0636ac	0.5242717
233	0xbdb2a7e5	-0.087234296
234	0xbed6c48b	-0.41946825
235	0x3f18c191	0.5967036
236	0x3e651be6	0.22373924
237	0xbe43de5d	-0.19127794
238	0x3e0e2c87	0.13884173
239	0xbe919e1e	-0.28440946
240	0xbd995f88	-0.07488924
241	0x3d96be79	0.073605485
242	0x3e8a03b2	0.26955944
243	0x3f5ad16c	0.854758
244	0xbe5a41d3	-0.21314172
245	0xbe5aa610	-0.2135241
246	0xbe7f42ea	-0.2492787
247	0xbe86d850	-0.26336908
248	0xbdb3474c	-0.08753833
249	0xbe003d61	-0.12523414
250	0xbd93acbd	-0.072106816
251	0xbe88a55d	-0.26688662
252	0xbb8f186c	-0.004366925
253	0xbd19619d	-0.037446607
254	0xbb9e839d	-0.004837467
255	0xbbf401e9	-0.007446517

linear2.weight f4 [3, 256]
0	0x3f396de2	0.7243329
1	0x3e833d2b	0.25632605
2	0x3e0d7959	0.13815822
3	0xbe62d4ff	-0.22151564
4	0xbe84ae20	-0.25914097
5	0xbf2c090c	-0.67201304
6	0xbe96c906	-0.29450244
7	0x3ec4c01d	0.3842782
8	0xbe2d76a9	-0.16939797
9	0xbecd4db7	-0.40098354
10	0xbea5801a	-0.32324296
11	0xbf588dd2	-0.845914
12	0xbeb770d0	-0.35828257
13	0xbea7c22f	-0.32765338
14	0x3ee0b27a	0.43886167
15	0xbf507c8c	-0.81440043
16	0xbe45f776	-0.1933268
17	0xbf39b56e	-0.72542465
18	0xbd351d36	-0.04421731
19	0xbf277231	-0.6540862
20	0x3ed92f95	0.42419115
21	0x3e940310	0.28908587
22	0xbec823fe	-0.3908996
23	0xbe223aa6	-0.15842685
24	0xbf048162	-0.5175992
25	0xbee0cb9d	-0.43905345
26	0xbf1cee76	-0.6130136
27	0x3f139389	0.57646996
28	0xbf4ef143	-0.80836886
29	0x3f09c1f8	0.538116
30	0xbc1a585e	-0.009420482
31	0x3ee91cd0	0.45529795
32	0xbe545e86	-0.20739183
33	0x3f200af3	0.6251671
34	0xbe6ada0a	-0.22934738
35	0xbf7a381f	-0.97741884
36	0x3e3b769a	0.18306962
37	0xbef097ef	-0.46990916
38	0xbe271521	-0.16316654
39	0x3eb455c1	0.35221675
40	0xbda8ae16	-0.08236329
41	0x3eff0e2f	0.4981551
42	0xbe14a97c	-0.14517778
43	0xbf570d19	-0.8400436
44	0xbf12bbc3	-0.5731775
45	0xbef080f7	-0.46973392
46	0xbf19e39f	-0.6011295
47	0x3f09f81e	0.5389422
48	0x3f4ee095	0.80811435
49	0x3ee8009c	0.45312965
50	0x3f03aef5	0.5143884
51	0xbf2ba23e	-0.67044437
52	0xbf804148	-1.0019922
53	0xbe0557aa	-0.13021722
54	0x3eb4123a	0.35170156
55	0xbebde0c8	-0.37085557
56	0xbf0d6f8d	-0.5524834
57	0xbf58db27	-0.847094
58	0xbdedbd6d	-0.11608396
59	0x3c4dc7f9	0.012559884
60	0xbe30915f	-0.17242955
61	0x3edc0acf	0.42976996
62	0x3e587b5d	0.2114081
63	0xbf7ae9db	-0.98013085
64	0x3f1428c7	0.5787472
65	0x3f23689c	0.63831496
66	0xbe5ad8ec	-0.21371812
67	0x3d915287	0.07095819
68	0xbe2dc331	-0.16968991
69	0x3df015fb	0.117229424
70	0xbe820c63	-0.25400075
71	0xbf0b2313	-0.54350394
72	0x3db19f72	0.0867299
73	0xbe8e76d5	-0.27825037
74	0xbeec097b	-0.46100983
75	0xbe3d93f7	-0.18513475
76	0x3e2b696d	0.16739435
77	0xbe01380c	-0.12619036
78	0xbf1aa3e2	-0.60406315
79	0xbdaf40cf	-0.08557283
80	0x3ec7df7f	0.390377
81	0xbdf43d29	-0.11925728
82	0xbe9139df	-0.28364465
83	0xbf12e8d3	-0.5738651
84	0xbe941f0d	-0.2892994
85	0x3f0d7c18	0.5526748
86	0x3e5f9ded	0.21837588
87	0xbd9243d2	-0.07141842
88	0x3ead4d98	0.33848262
89	0xbedb67ca	-0.42852622
90	0xbf3ce348	-0.73784304
91	0xbf1c6b49	-0.61101204
92	0x3d702f9e	0.05863916
93	0xbe5207c6	-0.20510778
94	0x3f2bb4ae	0.6707257
95	0xbf36ac51	-0.71356684
96	0xbe07b7ed	-0.13253756
97	0x3efc3baf	0.49264285
98	0x3d526f0c	0.051375434
99	0x3f25cefc	0.6476896
100	0x3efd4af8	0.4947126
101	0x3f0f57bd	0.55993253
102	0xbf044299	-0.5166412
103	0x3e286a09	0.16446699
104	0x3f041765	0.515982
105	0xbf44e8ef	-0.7691793
106	0x3d084aec	0.033274576
107	0x3e5c7315	0.21528275
108	0xbf23dbd8	-0.6400733
109	0x3ef7fd48	0.48435426
110	0x3f51a501	0.818924
111	0xbec84ea0	-0.39122486
112	0x3f07194c	0.52772975
113	0xbe85d297	-0.2613723
114	0x3ec7412e	0.38916916
115	0x3f24a487	0.6431355
116	0x3e67d775	0.22640784
117	0xbd4ce80e	-0.050025992
118	0x3ef3e469	0.476352
119	0x3ea1552a	0.31510288
120	0xbf307505	-0.6892856
121	0x3d9f2c46	0.07772116
122	0xbcc29b34	-0.023755647
123	0x3e637c51	0.22215392
124	0xbf6aa3cd	-0.9165619
125	0xbf21f528	-0.63264704
126	0x3d96c05d	0.07360909
127	0xbf558b36	-0.83415544
128	0xbf428de3	-0.7599775
129	0x3d579428	0.052631527
130	0x3ec3e47c	0.38260257
131	0x3f150182	0.58205426
132	0xbefe37b3	-0.4965187
133	0x3e84628c	0.25856435
134	0xbe67563a	-0.22591487
135	0xbe502157	-0.20325218
136	0xbba7489f	-0.0051050927
137	0x3da6049d	0.08106349
138	0x3d802fa7	0.06259089
139	0x3e827140	0.25477028
140	0xbe8d48c7	-0.27594587
141	0xbcff2b1f	-0.031148491
142	0x3f1f269c	0.6216829
143	0x3ede2f45	0.4339544
144	0x3d535260	0.05159223
145	0x3d884753	0.06654229
146	0xbf39c473	-0.7256538
147	0xbe80f5cf	-0.25187537
148	0x3edfef89	0.43737438
149	0x3ecf52f9	0.4049299
150	0x3e6d4e10	0.2317431
151	0xbee42462	-0.44559008
152	0xbf173c33	-0.5907623
153	0x3f0c3d48	0.5478101
154	0x3e4f33fc	0.20234674
155	0xbf2c0837	-0.67200035
156	0xbdb5c1ab	-0.0887483
157	0xbf1e5f3a	-0.61864054
158	0x3eb16e60	0.34654522
159	0xbe5bab57	-0.2145208
160	0x3c471c24	0.012152705
161	0xbd7372fe	-0.059435837
162	0xbf081715	-0.5316022
163	0x3f270e64	0.65256333
164	0xbf1976c7	-0.59946865
165	0xbcda8674	-0.02667544
166	0x3e858477	0.26077625
167	0x3ec7e86d	0.39044514
168	0x3f47eac5	0.78092605
169	0x3f005d7b	0.5014264
170	0xbec0b206	-0.3763582
171	0xbc095366	-0.0083817
172	0x3eeeefe7	0.46667406
173	0xbed0ad4a	-0.4075721
174	0x3dc50fbe	0.09622143
175	0xbf5ec849	-0.8702436
176	0x3f434480	0.762764
177	0xbdd12b67	-0.102133565
178	0x3f1078e0	0.5643444
179	0xbf507eda	-0.8144356
180	0x3ef8d910	0.48603106
181	0xbf65ab07	-0.8971409
182	0x3e39f78c	0.18160838
183	0xbeb9f5c7	-0.36320326
184	0x3ed9c511	0.42533162
185	0xbf341bda	-0.70355
186	0xbe8db1f3	-0.27674827
187	0xbe14b1c2	-0.14520934
188	0xbe5b90eb	-0.21442
189	0x3e9444b3	0.28958663
190	0x3f141aa2	0.5785314
191	0xbea3cf45	-0.31994072
192	0x3f00508f	0.5012292
193	0x3eeab67f	0.45842358
194	0xbf52a589	-0.82283837
195	0x3f207f8e	0.62694633
196	0xbe2066c7	-0.15664206
197	0xbec06b0b	-0.37581667
198	0xbf836085	-1.026383
199	0x3d178c22	0.036998875
200	0xbdff0842	-0.12452747
201	0x3f06121b	0.52371377
202	0xbf34c8a0	-0.7061863
203	0x3f04d7d9	0.5189186
204	0x3ec43ea4	0.3832904
205	0xbf600194	-0.8750241
206	0x3b1b9cc1	0.0023744556
207	0xbe9a9aec	-0.3019632
208	0xbf362d9f	-0.7116336
209	0x3d972bea	0.07381423
210	0xbe85d118	-0.26136088
211	0xbd580708	-0.05274108
212	0xbe8cfbc8	-0.27535844
213	0xbe37c8af	-0.17947648
214	0xbf564e6c	-0.8371341
215	0xbf693ae2	-0.91105473
216	0x3eb2bfd8	0.3491199
217	0x3f07d768	0.5306306
218	0xbf25d567	-0.6477875
219	0xbab0fec2	-0.0013503658
220	0x3ed4573b	0.41472802
221	0x3f37f944	0.71864724
222	0xbf45c453	-0.7725269
223	0x3d01a65d	0.031652797
224	0xbf41157e	-0.7542342
225	0x3ea7afbb	0.3275126
226	0x3f0b71fd	0.5447081
227	0xbe4482b3	-0.19190483
228	0xbf55fdd0	-0.8359041
229	0xbd9b73d7	-0.07590454
230	0xbe39a3f7	-0.18128954
231	0xbd4e7e6c	-0.050413534
232	0x3f1c8c1c	0.6115129
233	0xbcc04280	-0.02346921
234	0xbeead571	-0.45865968
235	0x3f194a0c	0.5987861
236	0x3f557a6c	0.83389926
237	0xbea686a3	-0.32524595
238	0x3f04becb	0.51853627
239	0xbe695794	-0.22787315
240	0xbef68ad9	-0.48152807
241	0x3e5cf8c2	0.21579269
242	0x3e5f8ee6	0.21831855
243	0x3f0d8a3e	0.55289066
244	0xbf080bdb	-0.5314309
245	0xbee5c673	-0.44877967
246	0xbd363780	-0.044486523
247	0xbedf7403	-0.43643197
248	0xbd8c830e	-0.06860934
249	0xbe5e8a76	-0.21732506
250	0xbf217e38	-0.6308322
251	0x3d8f33f0	0.06992328
252	0xbf52e7d2	-0.8238498
253	0xbe13f057	-0.14447151
254	0x3ec2bd21	0.3803492
255	0xbe4f9dbb	-0.20275013

linear2.bias f4 [3]
0	0x3ebdea6b	0.3709291
1	0x3dd64919	0.10463161
2	0x3d820995	0.06349484
